…
n\nclass StyleLossToTarget():\n    def __init__(self, target_im, target_layers=[1, 6, 11, 18, 25]):\n        fc.store_attr()\n        with torch.no_grad(): self.target_grams = calc_grams(target_im[None], target_layers)\n    def __call__(self, input_im): \n        return sum((f1-f2).pow(2).mean() for f1, f2 in \n               zip(calc_grams(input_im, self.target_layers), self.target_grams))\n\nstyle_loss = StyleLossToTarget(style_im)\nstyle_loss(torch.rand(1, 3, 256, 256).to(def_device))\n\n\n\n\ntensor(1179.7140, device='cuda:0', grad_fn=&lt;AddBackward0&gt;)\n\n\n\nvgg16\n\nSequential(\n  (0): Conv2d(3, 64, kernel_size=(3, 3), stride=(1, 1), padding=(1, 1))\n  (1): ReLU(inplace=True)\n  (2): Conv2d(64, 64, kernel_size=(3, 3), stride=(1, 1), padding=(1, 1))\n  (3): ReLU(inplace=True)\n  (4): MaxPool2d(kernel_size=2, stride=2, padding=0, dilation=1, ceil_mode=False)\n  (5): Conv2d(64, 128, kernel_size=(3, 3), stride=(1, 1), padding=(1, 1))\n  (6): ReLU(inplace=True)\n  (7): Conv2d(128, 128, kernel_size=(3, 3), stride=(1, 1), padding=(1, 1))\n  (8): ReLU(inplace=True)\n  (9): MaxPool2d(kernel_size=2, stride=2, padding=0, dilation=1, ceil_mode=False)\n  (10): Conv2d(128, 256, kernel_size=(3, 3), stride=(1, 1), padding=(1, 1))\n  (11): ReLU(inplace=True)\n  (12): Conv2d(256, 256, kernel_size=(3, 3), stride=(1, 1), padding=(1, 1))\n  (13): ReLU(inplace=True)\n  (14): Conv2d(256, 256, kernel_size=(3, 3), stride=(1, 1), padding=(1, 1))\n  (15): ReLU(inplace=True)\n  (16): MaxPool2d(kernel_size=2, stride=2, padding=0, dilation=1, ceil_mode=False)\n  (17): Conv2d(256, 512, kernel_size=(3, 3), stride=(1, 1), padding=(1, 1))\n  (18): ReLU(inplace=True)\n  (19): Conv2d(512, 512, kernel_size=(3, 3), stride=(1, 1), padding=(1, 1))\n  (20): ReLU(inplace=True)\n  (21): Conv2d(512, 512, kernel_size=(3, 3), stride=(1, 1), padding=(1, 1))\n  (22): ReLU(inplace=True)\n  (23): MaxPool2d(kernel_size=2, stride=2, padding=0, dilation=1, ceil_mode=False)\n  (24): Conv2d(512, 512, kernel_size=(3, 3), stride=(1, 1), padding=(1, 1))\n  (25): ReLU(inplace=True)\n  (26): Conv2d(512, 512, kernel_size=(3, 3), stride=(1, 1), padding=(1, 1))\n  (27): ReLU(inplace=True)\n  (28): Conv2d(512, 512, kernel_size=(3, 3), stride=(1, 1), padding=(1, 1))\n  (29): ReLU(inplace=True)\n  (30): MaxPool2d(kernel_size=2, stride=2, padding=0, dilation=1, ceil_mode=False)\n)\n\n\nLet’s set up our NCA Model now\n\nnum_channels = 4\nhidden_n = 8\n\nWe will have intial grids with the image size which we want and values of each cell will be 0. We make one grid with grid size of 128 and channels as d
…
